iris_cnn_model2.pth (torch, 136608 bytes, 8 tensors)

conv1.weight f4 [64, 1, 2]
0	0x3f37bec2	0.7177545
1	0xbc26e70c	-0.010186922
2	0xbf25048b	-0.6446006
3	0x3ee6a85b	0.4505032
4	0xbf0b178a	-0.5433279
5	0x3f263e59	0.64938885
6	0x3f213de7	0.6298508
7	0x3d41cc1b	0.04731379
8	0x3e440767	0.19143449
9	0x3dd82198	0.105532825
10	0x3ed0367f	0.40666577
11	0xbe3d8e67	-0.18511353
12	0xbdcaab16	-0.09895913
13	0xbf38ea84	-0.7223284
14	0x3f0f9d64	0.56099534
15	0x3ea4fb99	0.32223204
16	0xbd403405	-0.04692461
17	0xbe9a676d	-0.30157033
18	0x3ee16fe3	0.44030675
19	0xbeec4998	-0.46149898
20	0x3dbee457	0.09320896
21	0x3ed4e66d	0.4158205
22	0x3e181aad	0.14853926
23	0x3e536e97	0.20647655
24	0x3f2ac20e	0.66702354
25	0x3ee90d93	0.4551817
26	0xbf0e7906	-0.5565342
27	0x3eb22f61	0.34801772
28	0xbf3125e9	-0.6919847
29	0x3f373266	0.71561277
30	0x3f34994c	0.7054641
31	0x3e5fec84	0.21867567
32	0x3ef56e6e	0.47935814
33	0xbf175ebc	-0.5912893
34	0x3ecd739a	0.4012726
35	0x3e95b3e4	0.29238808
36	0xbec3049e	-0.3808946
37	0xbf00342d	-0.50079614
38	0x3f127b24	0.5721915
39	0xbed9ce47	-0.4254019
40	0xbe8382d4	-0.2568575
41	0x3f03e9ed	0.5152882
42	0xbedc24c4	-0.429968
43	0x3e964435	0.29348913
44	0x3e83700a	0.25671417
45	0x3f0f4401	0.5596314
46	0x3d06ce1e	0.032911412
47	0xbef4bce7	-0.4780037
48	0xbda710e4	-0.081575185
49	0xbe49e1a2	-0.19714978
50	0xbe950db5	-0.2911202
51	0xbeebd96c	-0.46064317
52	0x3f164bd2	0.5870944
53	0x3e8cee0b	0.27525362
54	0xbf28cf67	-0.6594147
55	0x3d7cb355	0.06169446
56	0xbf1b64f6	-0.6070093
57	0xbebc6fb8	-0.36803985
58	0x3f1b75c4	0.6072657
59	0xbec9a1e2	-0.3938132
60	0xbf106996	-0.5641111
61	0x3f236de5	0.6383956
62	0xbee9d38f	-0.4566922
63	0xbeb3218c	-0.34986532
64	0x3ed58467	0.41702577
65	0x3e4e4bfe	0.20146176
66	0x3eca1cb9	0.3947504
67	0xbdb1fc6f	-0.08690726
68	0xbf112328	-0.5669427
69	0x3ed03450	0.4066491
70	0xbec39624	-0.38200486
71	0x3c300922	0.010744365
72	0xbf195f4c	-0.59911036
73	0x3e863b0a	0.26216918
74	0x3e0c6fd2	0.13714531
75	0xbe89dc74	-0.26926005
76	0xbe3534d7	-0.17695938
77	0x3f2d1ac4	0.67618966
78	0xbf0b4d72	-0.5441505
79	0xbf14740b	-0.5798957
80	0x3f20a6bb	0.6275441
81	0xbf1f914b	-0.62331074
82	0x3dedadaa	0.116053894
83	0x3f21c356	0.63188684
84	0x3df6507d	0.12027071
85	0xbdbf3b91	-0.09337533
86	0x3f238985	0.63881713
87	0x3ee9b93e	0.4564914
88	0x3f352af3	0.7076866
89	0x3df591b9	0.11990685
90	0xbe41d410	-0.18928552
91	0x3f2cf494	0.67560697
92	0xbea1a808	-0.3157351
93	0xbeb1e60e	-0.3474583
94	0xbe7044a1	-0.2346368
95	0xbf31239e	-0.6919497
96	0xbe86e4c2	-0.26346403
97	0xbf197f59	-0.5995994
98	0xbe833217	-0.25624153
99	0x3f018d42	0.5060617
100	0x3f00a81e	0.50256526
101	0xbe90c99e	-0.28278822
102	0x3e983bf6	0.29733247
103	0x3f298d96	0.6623167
104	0xbd4f6f24	-0.0506431
105	0xbe95f20a	-0.29286224
106	0x3ef34deb	0.47520384
107	0xbe226f2d	-0.15862723
108	0x3e454e4b	0.19268148
109	0xbea116d2	-0.31462723
110	0x3cba6742	0.022754315
111	0x3e62f60d	0.22164173
112	0xbf266edc	-0.6501291
113	0x3ebc95e3	0.36833104
114	0x3e79dbcd	0.24400254
115	0x3e0aad99	0.13542785
116	0xbd14e9e7	-0.03635588
117	0x3ed8e3df	0.42361352
118	0xbebe81e2	-0.37208468
119	0xbf30b927	-0.6903252
120	0x3ece3f2f	0.4028258
121	0xbf1b1539	-0.6057926
122	0x3bef7d00	0.0073086023
123	0xbdaf2f50	-0.08553946
124	0xbf027e46	-0.5097393
125	0xbe9c7185	-0.3055536
126	0x3f098bdd	0.5372904
127	0xbdffa77c	-0.12483117

conv1.bias f4 [64]
0	0x3e01fc24	0.1269384
1	0x3f0f69c3	0.56020755
2	0x3ef759fb	0.48310837
3	0x3ed3a422	0.4133616
4	0x3f353592	0.70784867
5	0x3f20409f	0.62598604
6	0x3e9db124	0.3079921
7	0x3e871d65	0.26389614
8	0x3ea14e2c	0.31504953
9	0x3e746da6	0.23869953
10	0xbf11a839	-0.5689731
11	0xbeb58bce	-0.35458225
12	0x3f021611	0.5081492
13	0x3f0d5261	0.55203825
14	0xbef242a1	-0.4731646
15	0xbf138e49	-0.57638985
16	0xbf20a0af	-0.62745184
17	0x3ea02f4d	0.31286088
18	0x3eacde31	0.3376327
19	0x3ef4753f	0.47745702
20	0xbe8b5dbf	-0.2721996
21	0x3ee00417	0.4375312
22	0xbf2c7642	-0.6736795
23	0x3f244c36	0.6417879
24	0x3f236487	0.6382527
25	0x3e61aeeb	0.22039382
26	0xbeb4c871	-0.35309175
27	0x3d72a867	0.059242632
28	0xbec077b4	-0.37591326
29	0xbeff460a	-0.49858123
30	0x3eb0cf87	0.3453333
31	0xbccabe75	-0.02474902
32	0x3d43a9bd	0.047769297
33	0xbeb72b2a	-0.3577512
34	0x3f203d96	0.6259397
35	0xbe69a4d1	-0.22816779
36	0x3de0525e	0.1095321
37	0xbebdab02	-0.3704453
38	0xbe904342	-0.28176314
39	0x3eeeb608	0.46623254
40	0xbf14aa2b	-0.58072156
41	0x3ef85cd3	0.4850832
42	0x3ed666a5	0.41875187
43	0x3d89e91e	0.06733917
44	0x3eed545c	0.46353424
45	0xbf14da15	-0.58145267
46	0x3eb51c67	0.35373232
47	0x3f27a43d	0.6548498
48	0x3f21f3c5	0.6326259
49	0xbca9ab91	-0.020711692
50	0x3db7a564	0.08967093
51	0xbeadcfcb	-0.33947596
52	0xbf1a5b82	-0.6029588
53	0xbe318909	-0.17337431
54	0xbf265e04	-0.64987206
55	0xbec9d01f	-0.39416596
56	0xbe47d1ed	-0.19513674
57	0x3ee46114	0.44605315
58	0x3ea06b8d	0.31332055
59	0xbeea3831	-0.45745996
60	0xbe8ce353	-0.27517185
61	0xbf033b58	-0.51262426
62	0x3f34ffa2	0.70702565
63	0xbf141c48	-0.57855654

conv2.weight f4 [128, 64, 2]
0	0xbda2c4fd	-0.07947729
1	0x3c973ca5	0.018461535
2	0x3c85b59c	0.01632195
3	0x3d8b282d	0.06794772
4	0x3ce08bc9	0.027410405
5	0xbc83a4e3	-0.016069835
6	0xbd962f5b	-0.07333251
7	0x3d8f5f54	0.07000604
8	0xbd8069a4	-0.06270149
9	0x3d392917	0.045205202
10	0xbc0ab81c	-0.008466747
11	0xbd611094	-0.05494745
12	0x3d3209d7	0.043466415
13	0x3da4bd72	0.08043946
14	0xbdb351ee	-0.08755861
15	0xbd59e54c	-0.05319719
16	0x3c87fffe	0.016601559
17	0x3abf7278	0.0014606258
18	0x3d27ff72	0.041015096
19	0xbce5a6f6	-0.028033715
20	0xbcb59d05	-0.0221696
21	0x3d66abca	0.056316175
22	0x3d9f092d	0.07765422
23	0xbc353fbb	-0.011062558
24	0xbd664e86	-0.05622723
25	0xbd31eda9	-0.04343954
26	0x3dac6cd6	0.08419196
27	0x3d6c6f82	0.05772353
28	0x3b4df2eb	0.0031425308
29	0x3d1a1d55	0.03762563
30	0x3d73b423	0.059497964
31	0x3d3d524d	0.046221066
32	0xbd5e09b3	-0.05420847
33	0x3dbbd121	0.091707475
34	0xbdb28754	-0.08717218
35	0xbd67e0dc	-0.056610927
36	0x3da084f5	0.078378595
37	0x3cddc0ed	0.027069533
38	0xbd703fc6	-0.05865457
39	0xbbb02318	-0.0053752773
40	0xbda8b267	-0.082371525
41	0xbda677bd	-0.08128307
42	0x3d3e3ec8	0.04644659
43	0xbd70a1d6	-0.05874809
44	0x3c2ae4c0	0.010430515
45	0xbc2e9552	-0.010655718
46	0xbca27353	-0.019830381
47	0xbc341683	-0.010991695
48	0x3d134054	0.03595002
49	0x3dd3dc2d	0.103447296
50	0x3c067e0a	0.008208761
51	0x3d7b6247	0.06137302
52	0x3d821d6c	0.06353268
53	0xbcfcde68	-0.03086777
54	0x3d84aa8d	0.064778425
55	0x3cbec3ba	0.02328669
56	0x3c93b21e	0.018029269
57	0x3d863810	0.06553662
58	0xbd001aa5	-0.03127541
59	0x3d309a97	0.04311618
60	0xbbd6b769	-0.006552626
61	0x3dbc29cf	0.09187662
62	0x3c7dfc08	0.015501983
63	0x3c831b74	0.016004302
64	0x3d8ab00a	0.06771858
65	0x3bf7b832	0.0075597996
66	0xbdb5e186	-0.08880906
67	0x3d42e52d	0.04758184
68	0x3d05cc73	0.03266568
69	0x3cb23fb6	0.021758895
70	0x3cebcbf8	0.028783783
71	0x3d62202a	0.055206455
72	0xbd9d74ac	-0.07688269
73	0xbd89e52d	-0.06733165
74	0xbd88201c	-0.066467494
75	0x3d7a46b2	0.061102577
76	0x3c27b9fd	0.010237214
77	0xbcfb6bb1	-0.030691
78	0xbcb50b22	-0.022100035
79	0x3cc0d47f	0.023538826
80	0x3d96d03f	0.073639385
81	0x3c016014	0.007896442
82	0xbd547c8b	-0.051876586
83	0x3d7bca03	0.06147195
84	0x3cb85862	0.022503082
85	0xbd0854f3	-0.03328414
86	0x3c9fe9fe	0.019520756
87	0xbcb3354a	-0.021875996
88	0x3bcee8f9	0.0063143936
89	0x3d446b79	0.047954056
90	0xbd1a6b7b	-0.037700158
91	0xbd737070	-0.0594334
92	0xbd25376e	-0.040336065
93	0x3da49965	0.0803707
94	0x3d6af3c1	0.057361368
95	0xbd81fc27	-0.06346922
96	0x3befba99	0.0073159453
97	0xbcc201ac	-0.023682438
98	0xbd5dbc26	-0.05413451
99	0xbd9d0877	-0.0766763
100	0x3d31b700	0.043387413
101	0x3c665416	0.014058134
102	0xbd31c6c8	-0.043402463
103	0xbda6f997	-0.08153074
104	0xbd22a451	-0.039707486
105	0xbdb3600b	-0.08758553
106	0xbc4650d3	-0.012104231
107	0x3d9a7d28	0.07543403
108	0xbc1fd471	-0.00975524
109	0xbbcb2bfa	-0.006200311
110	0xbcc463a2	-0.02397329
111	0x3ba0bc10	0.0049052313
112	0x3ca46755	0.020068804
113	0x3d834af6	0.06410782
114	0x3da435f7	0.080181055
115	0xbd88767a	-0.066632226
116	0xbbb2f55e	-0.005461379
117	0x3cb9657a	0.022631396
118	0x3d544ef6	0.051833116
119	0xbd92037d	-0.071295716
120	0x3da63552	0.08115639
121	0x3b4b1137	0.0030985603
122	0xbd9314ac	-0.07181677
123	0x3d23374a	0.03984765
124	0x3db2a5ce	0.08723031
125	0x3c046ca6	0.008082544
126	0x3d910344	0.07080701
127	0x3d9d12f2	0.07669629
128	0x3c89ff73	0.01684544
129	0xbc42b047	-0.011882848
130	0x3d83a599	0.064280696
131	0x3da2ffbc	0.07958934
132	0x3d05e695	0.032690603
133	0x3d1f52c8	0.038897306
134	0xbc2ea6ac	-0.010659855
135	0x3c858517	0.016298814
136	0x3d51b375	0.051196534
137	0xbd13c1b5	-0.036073405
138	0xb9483d34	-0.00019096286
139	0x3dd45d82	0.10369398
140	0x3ba4d11f	0.005029812
141	0xbd38556e	-0.045003347
142	0xbd16092f	-0.036629852
143	0x3bf7c6ae	0.0075615263
144	0xb9c2c7ea	-0.0003715151
145	0xbd56234c	-0.052279755
146	0xbc69bf9d	-0.014266876
147	0x3d3e6bdd	0.046489585
148	0xbc872571	-0.016497346
149	0x3d1d1a0d	0.038354922
150	0x3cb55643	0.02213586
151	0xbb264298	-0.0025369283
152	0x3dc1ed74	0.09469119
153	0x3d8caafc	0.0686855
154	0x3cc5d972	0.024151538
155	0xbcda723d	-0.026665801
156	0x3c9bc6ef	0.019015757
157	0xbce9e5cd	-0.02855196
158	0x3d9758e4	0.073900014
159	0xbd8b18ad	-0.06791816
160	0x3ca1afe8	0.019737199
161	0x3ccde4b3	0.025133466
162	0x3daae566	0.083445355
163	0x3db3293d	0.087481
164	0x3da37c4b	0.079826914
165	0xbc6dcea7	-0.014514602
166	0x3dc6fb92	0.09715952
167	0x3da9d3bd	0.08292339
168	0x3d55b3f4	0.05217357
169	0xbd506ebe	-0.050886862
170	0x3ce46f5a	0.027885128
171	0xbc836c70	-0.016042918
172	0xbc33d65d	-0.010976401
173	0xbd776afd	-0.060404766
174	0x3d01de50	0.031706154
175	0xbda92784	-0.0825949
176	0x3cb78432	0.022401903
177	0xbd514697	-0.05109271
178	0x3d94f41d	0.072731234
179	0xbbe7a808	-0.0070695914
180	0x3d3fdfeb	0.046844404
181	0x3d8cc823	0.068741105
182	0x3d8d74eb	0.06907066
183	0xbd9fa287	-0.077946715
184	0x3dba5705	0.09098629
185	0x3cee4f8e	0.029090669
186	0xbcfb5b8d	-0.030683303
187	0x3d2037d7	0.039115753
188	0x3d5e4230	0.05426234
189	0x3dcfc270	0.10144508
190	0x3cce270f	0.025165109
191	0xbb4493f8	-0.0029995423
192	0x3ca1ab57	0.019735022
193	0xbc6df215	-0.014523049
194	0xbcdc3ad7	-0.026883526
195	0xbda1e66a	-0.07905276
196	0x3d05c188	0.03265527
197	0x3d681435	0.056659896
198	0x3db4da4b	0.088306986
199	0xbd4db043	-0.050216924
200	0xbd86edcb	-0.06588324
201	0x3d0c09c9	0.03418902
202	0xbd93961e	-0.07206367
203	0x3c6ad7f0	0.01433371
204	0x3d918078	0.071045816
205	0x3a60f619	0.0008581593
206	0x3d32e88f	0.043678816
207	0xbd2878ff	-0.041131016
208	0xbdbd7714	-0.09251228
209	0x3da432e5	0.0801752
210	0x3dc3c1ce	0.0955845
211	0x3aeb6d85	0.0017961717
212	0x3c5f529f	0.013630538
213	0x3ceed591	0.02915457
214	0x3da69f39	0.08135838
215	0x3dc4b849	0.09605462
216	0x3d00a5d7	0.031408157
217	0xbd85d2c3	-0.0653434
218	0xbce932d4	-0.02846662
219	0x3d265295	0.0406061
220	0xbaf85678	-0.0018946668
221	0x3bd2df68	0.0064353235
222	0xbd941425	-0.07230405
223	0x3d0f0660	0.03491819
224	0x3d080e0b	0.033216517
225	0x3994e2e6	0.00028397812
226	0xbd285740	-0.041098833
227	0xbd361f08	-0.044463187
228	0xbbf52b1e	-0.0074819466
229	0x3d8a2c94	0.06746784
230	0x3bcbf969	0.0062248004
231	0xbd5db3e3	-0.05412663
232	0xbd73e076	-0.059540235
233	0x3d457a7a	0.048212506
234	0x3d72ae95	0.059248526
235	0xbd18674a	-0.03720788
236	0x3cbdff51	0.023193033
237	0xbdb19a00	-0.08671951
238	0xbce69698	-0.02814798
239	0xbd533fc3	-0.05157448
240	0x3dc85f8a	0.09783848
241	0x3c2f0d7c	0.010684367
242	0xbc92bc60	-0.01791209
243	0x3c891432	0.016733263
244	0x3dacf9f0	0.08446109
245	0x3db2a787	0.087233596
246	0x3d272f60	0.040816665
247	0x3d2f38e8	0.04277888
248	0x3becfef4	0.007232541
249	0xbdaa7e9a	-0.083249286
250	0x3c0856a8	0.008321442
251	0x3d67e19a	0.056611635
252	0xbd8e7b93	-0.06957164
253	0xbd86e65a	-0.06586905
254	0xbdbbc861	-0.091690786
255	0x3c28acb0	0.010295078

conv2.bias f4 [128]
0	0x3d77e3f9	0.060520146
1	0xbd901b82	-0.07036497
2	0xbca29821	-0.019847931
3	0x3d5e9c66	0.054348372
4	0xbd455ea9	-0.048185978
5	0xbcef6611	-0.029223474
6	0xbd240621	-0.040044907
7	0x3ce33ab3	0.02773795
8	0xbc3c01d5	-0.011475046
9	0x3d694a4b	0.056955617
10	0x3d779340	0.060443163
11	0x3d95e7e5	0.07319621
12	0x3d40f2b8	0.047106475
13	0x3d1af1b6	0.03782817
14	0x3cdd05f4	0.026980378
15	0x3ce25602	0.027628902
16	0x3ce7ced1	0.02829686
17	0xbdbba3ad	-0.09162078
18	0xbc053c96	-0.008132121
19	0x3d87175d	0.06596253
20	0xbcca2fd6	-0.024681013
21	0xbd31ce9a	-0.04340992
22	0x3d3512c0	0.044207335
23	0xbca971dd	-0.020684177
24	0xbb308220	-0.002693303
25	0xbd8558d8	-0.06511086
26	0x3af5ed24	0.001876269
27	0x3c806bd1	0.01567641
28	0xbceaf7e4	-0.028682657
29	0xbc4a36bd	-0.012342152
30	0x3db339dd	0.08751271
31	0x3d2cec97	0.042217817
32	0xbd2da3a5	-0.04239239
33	0x3d9cb0f5	0.076509394
34	0x3d4ce910	0.050026953
35	0xbd233bf4	-0.039852098
36	0xbd7543c9	-0.059879098
37	0xbc346d24	-0.011012349
38	0xbd588724	-0.052863255
39	0xbd739cb5	-0.05947562
40	0x3db4b83e	0.08824204
41	0x3d58a552	0.052892037
42	0x3983af00	0.00025116652
43	0xbd79155a	-0.060811378
44	0x3d255034	0.04035969
45	0x3ab39bf0	0.0013703089
46	0xbca25f5c	-0.019820862
47	0x3d83b658	0.06431264
48	0x3d81c0ab	0.063355766
49	0xbd4c58ea	-0.049889483
50	0x3cac074c	0.020999573
51	0xbd90657a	-0.07050605
52	0xbd1da819	-0.03849039
53	0x3c748d21	0.014926226
54	0xbd83f2ff	-0.06442832
55	0x3c2541ba	0.010086471
56	0x3d9751c5	0.07388643
57	0x3da7202e	0.08160435
58	0xbd4660ae	-0.048432045
59	0x3d1caa70	0.03824848
60	0x3d0e1693	0.034689497
61	0xbd78dfe8	-0.06076041
62	0x3d3f25da	0.046666957
63	0xbd48cfeb	-0.04902641
64	0x3d19c583	0.037541877
65	0x3d96c932	0.07362594
66	0x3c60d235	0.013721992
67	0x3d5e0ace	0.054209523
68	0x3d9a9d31	0.07549513
69	0x3d17c273	0.037050676
70	0xbcdd0356	-0.02697913
71	0x3cf76dc4	0.030203708
72	0x3dccf09e	0.100068316
73	0x3d620ee8	0.055189997
74	0xbb8d6359	-0.0043148217
75	0xbd8e4aac	-0.06947836
76	0x3dce0e92	0.10061373
77	0x3db13a4a	0.08653696
78	0x3d55b9cd	0.052179147
79	0x3dd23691	0.10264314
80	0x3d0bf445	0.0341685
81	0x3c34c432	0.011033105
82	0x3d5206cc	0.051276013
83	0xbd99302f	-0.074798934
84	0x3d0b4990	0.0340057
85	0xbcd3d3e8	-0.02585788
86	0x3c664e74	0.014056791
87	0x3c30ac9c	0.010783341
88	0x3dc2374b	0.094832025
89	0xbd13b7eb	-0.03606407
90	0x3dd45374	0.1036748
91	0xbd43875b	-0.047736507
92	0xbd2fd754	-0.042929962
93	0x3d0d8506	0.03455069
94	0xbc85e4c3	-0.016344434
95	0x3d91ce7b	0.07119461
96	0x3d986d76	0.07442753
97	0x3c32ea00	0.010920048
98	0xbbb94b1e	-0.0056547066
99	0x3aa40b70	0.0012515616
100	0x3d64663e	0.05576157
101	0xbc8b0f69	-0.016975122
102	0xbbfd04c4	-0.0077215154
103	0xbd882acc	-0.06648788
104	0x3d1ee66a	0.03879396
105	0x3dd11439	0.10208935
106	0xbd79ce2e	-0.060987644
107	0x3cf0ebd2	0.029409323
108	0x3d9f5528	0.07779914
109	0x3ac9c4f1	0.0015393776
110	0xbd68e139	-0.056855414
111	0xbda26817	-0.0793001
112	0xbd9338b2	-0.07188548
113	0x3c942cc5	0.018087754
114	0x3d51dfbc	0.05123876
115	0x3cb65dd2	0.022261534
116	0x3db9283b	0.090408765
117	0x3d1b7361	0.03795183
118	0x3d482cb9	0.048870776
119	0xbd55a5a5	-0.052159924
120	0x3d4374d1	0.047718827
121	0xbc8565cf	-0.016283898
122	0xbd167636	-0.03673383
123	0x3d3a73ed	0.04552071
124	0xbb7868df	-0.0037904305
125	0x3d5e6998	0.05429992
126	0x3db8f8c9	0.09031827
127	0x3b268600	0.002540946

fc1.weight f4 [64, 256]
0	0xbd3072ef	-0.04307836
1	0x3adddc73	0.0016926661
2	0x3c916560	0.017748535
3	0x3d24fbdb	0.04027925
4	0x3c23fe0a	0.010009298
5	0xbd4504fa	-0.04810045
6	0xbc500f73	-0.012698996
7	0xbd014965	-0.031564135
8	0xb9115ce6	-0.00013862885
9	0xbcd769f7	-0.026295645
10	0xbd106f70	-0.035262525
11	0xbd38462e	-0.044988804
12	0xbcdda978	-0.027058348
13	0x3d5ba28e	0.05362182
14	0x3ce21e7b	0.027602425
15	0xbcb055a4	-0.021525212
16	0x3cff6b4c	0.031179093
17	0xbcbe5f2e	-0.023238745
18	0x3c46b918	0.012129091
19	0xbd5e98c3	-0.054344904
20	0x3c620f06	0.013797527
21	0xbc5dbd29	-0.013533869
22	0xbd32d764	-0.043662444
23	0xbccf6777	-0.02531789
24	0x3d585a4c	0.05282049
25	0x3c1a44bf	0.009415804
26	0x3d4d5948	0.050133973
27	0x3c75ec4d	0.015009952
28	0xbd5afd32	-0.053464122
29	0xbc108a69	-0.008822062
30	0x3d50fd43	0.05102278
31	0xbd0d3ac5	-0.034479875
32	0x3c8b810e	0.017029312
33	0xbd3d53a0	-0.04622233
34	0x3c980e1b	0.018561414
35	0xbb634809	-0.0034680387
36	0xbd4912e4	-0.04909028
37	0x3d117d1a	0.035519697
38	0x3d9e05da	0.0771596
39	0x3c3f2989	0.011667618
40	0x3c95bebc	0.018279426
41	0xbd0a9be0	-0.03384006
42	0xbcbd66de	-0.02312034
43	0x3bf076fc	0.007338403
44	0x3a8ed898	0.001089829
45	0x3b1bce12	0.002377395
46	0xbcd5ccde	-0.026098665
47	0x3d2e956d	0.042622972
48	0x3cdb2c54	0.026754536
49	0x3d0e5106	0.03474524
50	0x3d824dec	0.06362519
51	0x3c53bd8f	0.012923612
52	0x3c5456f3	0.012960183
53	0x3b28bb85	0.0025746536
54	0x3ca84e35	0.020545105
55	0xbc3d793c	-0.011564549
56	0x3d18f8fc	0.037346825
57	0x3d0ce014	0.034393385
58	0x3d25b8e3	0.040459525
59	0xbc91f552	-0.017817173
60	0x3bfac0f1	0.007652395
61	0xbcea933d	-0.028634662
62	0x3c861e4e	0.016371872
63	0x3b090fb8	0.002091391
64	0x3d6da7ff	0.05802154
65	0xbd546402	-0.051853187
66	0x3cc3c00b	0.023895284
67	0x3d22d25d	0.0397514
68	0x3d4dcb48	0.050242692
69	0x3d459dde	0.048246257
70	0xbd010808	-0.0315018
71	0x3d29041d	0.04126369
72	0xbc4a67ca	-0.012353847
73	0x3d90b05b	0.07064887
74	0xbcd1cf2c	-0.025611483
75	0x3cf1eaa4	0.02953083
76	0xba9d83df	-0.001201745
77	0xbbc10369	-0.005890299
78	0x3cd44306	0.025910866
79	0xbd87f302	-0.06638147
80	0xbd28a9e6	-0.041177653
81	0x3d379383	0.044818413
82	0x3d156935	0.036477286
83	0xbbc6ba80	-0.006064713
84	0xbd213300	-0.039355278
85	0x3d033f3c	0.032042727
86	0x3cc4c3e7	0.024019195
87	0x3ca80c07	0.020513548
88	0x3d652445	0.055942792
89	0x3d81d118	0.063387096
90	0xbc8cf26e	-0.017205443
91	0x3d910e39	0.07082791
92	0xbd3a73e4	-0.04552068
93	0x3cb90a24	0.022587843
94	0xbc98efec	-0.018669091
95	0x3c86dee2	0.0164637
96	0xbcae7fa6	-0.021301102
97	0xbd85ac67	-0.06527024
98	0xbd0387e2	-0.03211201
99	0x3d0d576c	0.0345072
100	0xbd1ba5af	-0.037999805
101	0x3bb2074a	0.005432998
102	0xbd7edcd5	-0.06222232
103	0x3b73337b	0.0037109542
104	0x3c93a306	0.018022072
105	0x3d10c576	0.035344563
106	0xbcee6e6d	-0.02910539
107	0x3a9f5a1c	0.0012157592
108	0x3ce0066d	0.027346814
109	0xbc100bb5	-0.008791854
110	0x3cacaf19	0.021079587
111	0xbcadf29c	-0.02123385
112	0x3d2f2d90	0.04276806
113	0x3d0e033c	0.034671053
114	0x3c5f640e	0.013634695
115	0x3cd3ec30	0.025869459
116	0xbc858536	-0.016298871
117	0xbba5f077	-0.005064066
118	0x3b87c34a	0.0041431533
119	0x3d053874	0.03252454
120	0xbd85a094	-0.065247685
121	0x3d732909	0.059365306
122	0x3ce6f809	0.028194444
123	0xbd409f08	-0.047026664
124	0xbc9af9d1	-0.01891795
125	0x3be7491c	0.007058276
126	0x3d880ee0	0.06643462
127	0xbc201ee8	-0.009772994
128	0x3d17b1d6	0.037034832
129	0x3cc875a7	0.024470164
130	0x3c2d104f	0.01056297
131	0x3d0fa858	0.035072654
132	0xb8f36d78	-0.00011607533
133	0xbd47f239	-0.048814986
134	0x3d5c7e5a	0.053831436
135	0x3cae82e9	0.021302657
136	0xbce480a7	-0.027893377
137	0x3d50e9f4	0.051004365
138	0x3cef86e8	0.029239133
139	0x3ba19243	0.004930766
140	0x3cba0c75	0.022711018
141	0x3c3ecd46	0.011645621
142	0x3d2f3863	0.042778384
143	0xbd4d970e	-0.050192885
144	0xbd01da25	-0.03170218
145	0x3ce19d1a	0.027540732
146	0xbcad3a5f	-0.021145998
147	0xbd0f78a2	-0.035027154
148	0x3d17461b	0.036932092
149	0x3a52907d	0.00080323947
150	0x3d2e46b2	0.04254789
151	0x3cf1e9c7	0.029530419
152	0xbc91ec60	-0.017812908
153	0xbc988054	-0.01861588
154	0x3d9071af	0.070529334
155	0xbd6422d6	-0.055697285
156	0x3d29b7ca	0.04143504
157	0xbc359a50	-0.011084154
158	0x3d37e694	0.04489763
159	0x3d463cfa	0.048397996
160	0x3caaa4ce	0.020830538
161	0x3d3c0e96	0.045912348
162	0x3d8f34f9	0.069925256
163	0x3c93b357	0.018029852
164	0xbd25aabd	-0.04044603
165	0xbd39529b	-0.045244794
166	0xbc26c284	-0.010178212
167	0xbcec26b5	-0.02882705
168	0x3d810e42	0.063015476
169	0x3d3dd190	0.046342432
170	0x3d5317e6	0.051536463
171	0x3cfd25b5	0.03090177
172	0x3d7081c6	0.05871751
173	0xbcfe751e	-0.031061705
174	0x3d6de24d	0.058077145
175	0x3d334bd4	0.043773487
176	0x3cacff3a	0.021117795
177	0xbd3fcd50	-0.04682666
178	0x3d3b93f2	0.04579539
179	0x3d4db438	0.050220698
180	0xbd65b9bf	-0.056085344
181	0x3d7c7f95	0.06164511
182	0x3d34aa14	0.04410751
183	0x3be315dc	0.006930096
184	0xbd725e95	-0.05917223
185	0xbc6a3301	-0.014294387
186	0xbb20dec0	-0.0024546832
187	0x3d13449e	0.03595411
188	0xbd1aa76c	-0.037757322
189	0xbcab43d3	-0.020906365
190	0x3d010cf2	0.031506486
191	0xbd54e35c	-0.05197464
192	0x3d763150	0.06010562
193	0x3d4ea7de	0.05045306
194	0x3d273ce7	0.040829565
195	0x3c4e7a41	0.01260239
196	0xbc6f83d4	-0.014618833
197	0x3ce1de6e	0.027571883
198	0x3cb2cd1e	0.021826323
199	0xbcedaa3b	-0.029011836
200	0x3d6609d0	0.0561617
201	0x3ce9fa23	0.028561657
202	0x3d88887c	0.06666657
203	0xbd036656	-0.032080017
204	0x3ad9da26	0.00166208
205	0xbcc0d3c7	-0.023538483
206	0xbd3b3157	-0.04570135
207	0x3ce40d39	0.027838336
208	0x3be030d3	0.006841758
209	0xbd0b2b7a	-0.03397701
210	0xbc836f34	-0.016044237
211	0xbcdc4b45	-0.02689136
212	0x3d6d9d73	0.058011483
213	0xbca03229	-0.019555168
214	0xbbe76483	-0.0070615425
215	0x3b8d8862	0.0043192366
216	0x3d3bf8cb	0.045891564
217	0x3d676fab	0.05650298
218	0xbc254530	-0.010087296
219	0xbb5a7443	-0.0033333458
220	0xbd7fd0cc	-0.062454984
221	0x3d6fa030	0.058502376
222	0xbd1792f6	-0.037005387
223	0xbcd66274	-0.026169993
224	0x3d4d428e	0.0501123
225	0xbc56525e	-0.013081161
226	0x3c0fe9b1	0.008783744
227	0xbc3286cc	-0.010896396
228	0x3d80d38e	0.06290351
229	0xbb8b48d3	-0.0042506247
230	0x3d00ec7f	0.03147554
231	0xbb926a71	-0.004468255
232	0xbd2b61f1	-0.04184145
233	0x3c8d4e9f	0.017249404
234	0xbd42e1b6	-0.047578536
235	0x3c7594c5	0.014989083
236	0x3da047e9	0.07826216
237	0xbd8bfdd0	-0.0683552
238	0xbd1b65b1	-0.037938777
239	0x3cbd1866	0.023082923
240	0xbd008964	-0.031381026
241	0xbd7395ef	-0.05946916
242	0x3d76f35e	0.060290687
243	0xbcca3d2e	-0.024687376
244	0x3d26018e	0.040528826
245	0x3cb4241b	0.021989873
246	0x3c05c66c	0.008164983
247	0xbd1b8f0e	-0.037978224
248	0x3d539bcc	0.05166225
249	0xbc26d96f	-0.010183676
250	0x3d51fcb8	0.051266402
251	0xbd344c30	-0.04401797
252	0xbd37fc9d	-0.044918645
253	0x3d8568e5	0.06514148
254	0x3d1f1ca6	0.03884568
255	0x3d214498	0.039372057

fc1.bias f4 [64]
0	0x3cc7fd1c	0.024412684
1	0xbd1e0d09	-0.03858665
2	0x3b879cad	0.0041385503
3	0x3d546b75	0.05186029
4	0xbd0555e0	-0.0325526
5	0xbd7ed53c	-0.062215075
6	0x3d0024c1	0.03128505
7	0xbd3573bd	-0.04429983
8	0x3c8a3f38	0.016875848
9	0x3cdc92aa	0.026925404
10	0xbccf2311	-0.025285276
11	0xbd434f78	-0.04768321
12	0xbbdfa1bb	-0.0068246997
13	0x3c155f39	0.009116941
14	0xbba81561	-0.0051295017
15	0x3d31bc5f	0.043392535
16	0xbc49adb7	-0.012309483
17	0x3a3e0ced	0.0007249851
18	0xbd4ca050	-0.049957573
19	0x3c69d194	0.014271159
20	0x3d43547f	0.047688004
21	0x3d1d54d5	0.03841098
22	0xbd8edd50	-0.06975806
23	0x3cabc68a	0.020968694
24	0xbc21dcba	-0.0098792855
25	0x3c7f8d4a	0.015597651
26	0x3d9541c8	0.072879374
27	0xbbdda885	-0.006764474
28	0x3cd692e6	0.026193094
29	0x3b51d9f1	0.0032020772
30	0xbbd2bc14	-0.006431112
31	0xbd225b27	-0.03963771
32	0x3d314caf	0.04328602
33	0x3d6a7a0b	0.057245295
34	0xbc978ed6	-0.018500727
35	0xbbd86a6e	-0.0066044843
36	0xbb27234b	-0.0025503214
37	0x3cb67ef7	0.022277338
38	0x3ccd28af	0.025043814
39	0xbcea935c	-0.02863472
40	0x3d71a539	0.05899546
41	0x3d3efe02	0.04662896
42	0x3baa447c	0.0051961523
43	0x3d34a9ed	0.044107366
44	0xbcf12575	-0.029436806
45	0xbd79ff76	-0.061034642
46	0xbd2de045	-0.04245021
47	0xbbe80dd6	-0.0070817275
48	0xbc8562c8	-0.016282454
49	0x3d3bc43f	0.04584145
50	0xbd8e1e8a	-0.069394186
51	0x3c129d8a	0.008948693
52	0xbcf06e37	-0.02934943
53	0x3b1c6694	0.0023864852
54	0xbb94a30e	-0.004536039
55	0x3c32047f	0.01086533
56	0x3da3482b	0.07972749
57	0xbb2728f9	-0.00255066
58	0xbd123bf3	-0.035701703
59	0xbcd6175c	-0.026134185
60	0xbbe10da0	-0.0068680793
61	0xbccbd124	-0.02488
62	0xbd5fa07c	-0.05459641
63	0x3c4c0605	0.012452607

fc2.weight f4 [3, 64]
0	0xbe01cb83	-0.1267529
1	0x3d113c3b	0.03545783
2	0x3dc8cd62	0.09804799
3	0xbdbb610e	-0.09149371
4	0x3e064063	0.13110499
5	0x3bb8ba69	0.005637456
6	0x3c892121	0.01673943
7	0x3dc375a3	0.09543922
8	0xbb81daea	-0.003962864
9	0x3dd6731d	0.10471175
10	0xbe03ca43	-0.12870125
11	0x3dc753a2	0.097327486
12	0x3ccf8a7b	0.025334587
13	0xbdbb52a4	-0.09146622
14	0xbd703c19	-0.058651064
15	0x3d770570	0.06030792
16	0xbddbe73f	-0.10737466
17	0x3e02f160	0.1278739
18	0xbde4c9b9	-0.11171288
19	0xbde90cc3	-0.11379387
20	0xbd87d150	-0.0663172
21	0x3d959af3	0.07304945
22	0xbc8e47c7	-0.01736821
23	0xbb5b5a2a	-0.003347049
24	0xbaae1ea6	-0.001328428
25	0xbb861c4b	-0.0040927283
26	0x3dd7b425	0.10532407
27	0x3c6d15be	0.014470516
28	0x3cca539c	0.024698071
29	0x3be31770	0.006930284
30	0x3d7af01e	0.06126415
31	0x3d766a07	0.06015971
32	0xbd2bf5a7	-0.04198232
33	0xbd96f3e8	-0.0737074
34	0xbdd02f46	-0.10165267
35	0xbb33ef5a	-0.0027455897
36	0x3cafc6f9	0.021457182
37	0xbdd2d81a	-0.10295124
38	0x3dd9477e	0.10609339
39	0xbd9b163e	-0.07572602
40	0x3cd27dc3	0.025694733
41	0xbdad6523	-0.08466556
42	0xbdaad520	-0.083414316
43	0xbc8f66b9	-0.017505037
44	0x3ddc0f45	0.107451
45	0xbdbc1860	-0.09184337
46	0xbe01a97a	-0.12662306
47	0x3d43f0b4	0.047836974
48	0xbd28f3cc	-0.041248128
49	0xbd9cc763	-0.076552175
50	0xbd633230	-0.055467784
51	0xbd8b1493	-0.067910336
52	0xbdda8f29	-0.10671837
53	0xbdb7c13e	-0.08972405
54	0x3c996f00	0.018729687
55	0x3de2fa7b	0.110829316
56	0xbd9e3daa	-0.07726605
57	0x3e0adbeb	0.13560455
58	0xbd1b1671	-0.0378632
59	0xbd3d961b	-0.04628573
60	0xbc291629	-0.010320225
61	0xbd4dc482	-0.050236233
62	0x3d99fc5d	0.075188376
63	0x3d5380ad	0.051636387
64	0xbbc00280	-0.005859673
65	0x3e12a904	0.14322287
66	0x3bc839ec	0.0061104205
67	0x3ce20c57	0.027593775
68	0xbc313356	-0.010815462
69	0xbc9e6d16	-0.019339126
70	0xbd782a8a	-0.060587443
71	0xbd4481c1	-0.047975305
72	0xbce0875d	-0.027408296
73	0x3db4e36b	0.08832439
74	0x3db6a551	0.0891825
75	0x3d1f5e50	0.038908303
76	0x3c448c5a	0.011996353
77	0xbe0f008c	-0.13965052
78	0x3dc0ad90	0.094081044
79	0x3bbaf225	0.0057051354
80	0x3c1056a7	0.008809722
81	0xbd1acef2	-0.037795015
82	0xbe0b30cb	-0.13592832
83	0x3e060720	0.13088655
84	0xbe12964e	-0.14315149
85	0x3dc0aaf6	0.09407608
86	0xbd805b4e	-0.06267415
87	0x3db35cf4	0.08757964
88	0x3a40d09c	0.0007355304
89	0xbe052a69	-0.1300446
90	0xbe05d8d9	-0.13071002
91	0xbcf32bfe	-0.029684063
92	0xbd0250be	-0.031815283
93	0xbb592bea	-0.0033137747
94	0xbe0c662b	-0.13710849
95	0xbd90ce0c	-0.0707055
96	0xbd959bcd	-0.07305107
97	0x3d3daa4f	0.046304997
98	0x3e0f1010	0.13970971
99	0xbcd3c913	-0.025852716
100	0xbe08611a	-0.13318291
101	0xbcb3107c	-0.021858446
102	0xbe049bb3	-0.1295002
103	0x3c0192b0	0.007908508
104	0xbd71f544	-0.059071794
105	0x3d08fb5d	0.033442844
106	0xbd88b325	-0.06674794
107	0xbc453a64	-0.012037847
108	0xbd75ed10	-0.060040534
109	0xbda47278	-0.08029646
110	0x3d72d203	0.059282314
111	0xbd31b908	-0.04338935
112	0x3daf0900	0.085466385
113	0x3abc50c5	0.0014367333
114	0x3cc932ec	0.024560414
115	0xbdfdd6f6	-0.12394516
116	0x3bbbff65	0.0057372325
117	0xbdec1940	-0.115282536
118	0x3df0f192	0.11764826
119	0xbd18a622	-0.03726781
120	0xbd7140cb	-0.058899682
121	0xbcff1d21	-0.03114182
122	0x3dc6e60a	0.09711845
123	0x3db6925d	0.08914635
124	0x3dd7894c	0.10524234
125	0x3deecae3	0.11659791
126	0x3c1b46ce	0.00947733
127	0x3d76409c	0.06012021
128	0x3c16f9fc	0.009214874
129	0xbdf8fec5	-0.121579684
130	0xbd8e6ecf	-0.06954729
131	0x3d276980	0.040872097
132	0x3d94f3b9	0.07273049
133	0x3d388e5b	0.045057636
134	0x3da5b2ba	0.0809073
135	0xbdbcc9dc	-0.09218189
136	0xbdd349dd	-0.10316823
137	0xbd0ff2bc	-0.0351436
138	0xbc798de7	-0.015231586
139	0xbdf67e72	-0.12035836
140	0xbdc941b6	-0.098269865
141	0xbdb64473	-0.088997744
142	0x3d5e6e4c	0.054304406
143	0x3de170a2	0.11007811
144	0x3e04d041	0.12970068
145	0xbd4f3e1d	-0.050596345
146	0x3b847f25	0.004043477
147	0xbdf5e812	-0.120071545
148	0x3d7794a8	0.060444504
149	0xbd7288bf	-0.059212442
150	0x3d705cca	0.05868224
151	0x3d912617	0.07087343
152	0x3e071d9f	0.13194893
153	0x3d2e10a9	0.042496357
154	0xbe041f01	-0.12902452
155	0x3d898990	0.06715691
156	0x3ddbf515	0.10740105
157	0x3db215ab	0.08695539
158	0xbd9313ac	-0.071814865
159	0x3db0101a	0.08596821
160	0x3db907e7	0.090347104
161	0x3ce533a0	0.027978718
162	0x3db3d1d6	0.087802574
163	0x3b8150ad	0.003946385
164	0x3da47fef	0.08032214
165	0x3bb2d397	0.0054573524
166	0xbd01ee61	-0.031721476
167	0xbd3dbcb8	-0.046322554
168	0xbd54c9d9	-0.05195031
169	0xbd855ed4	-0.06512228
170	0xbd039380	-0.03212309
171	0xbdc876b7	-0.09788268
172	0xbdca2188	-0.09869677
173	0xbd5f17a4	-0.054465905
174	0xbcc101be	-0.023560401
175	0xbdc51b24	-0.09624317
176	0x3b613300	0.0034362674
177	0x3d6a63aa	0.057223953
178	0xbdfb9a15	-0.12285248
179	0x3d86909c	0.06570551
180	0x3d84eda5	0.064906396
181	0xbdafc2e1	-0.08582092
182	0x3c32322b	0.010876219
183	0x3b2223e5	0.0024740633
184	0xbe0dfbd2	-0.13865593
185	0xbd749a72	-0.059717603
186	0x3de92826	0.11384611
187	0xbdb244aa	-0.08704503
188	0xbd91d102	-0.07119943
189	0xbcdf2152	-0.027237568
190	0x3d4a1fff	0.04934692
191	0xbcebaea6	-0.028769802

fc2.bias f4 [3]
0	0x3dbd4796	0.092421696
1	0xbd7dee7c	-0.061995015
2	0x3c39aa61	0.011332125
